Pytorch_useful_function/net_params.pkl (torch_old, 1005 bytes, 3 tensors)

conv1.weight f4 [1, 3, 3, 3]
0	0xbd8ea15d	-0.06964371
1	0x3cf50c30	0.029913038
2	0x3d7f7e2c	0.062376186
3	0xbe0332a9	-0.12812294
4	0xbe347143	-0.17621331
5	0x3ca40ad0	0.020024687
6	0x3dbe434e	0.09290181
7	0xbd79173c	-0.060813174
8	0xbe342644	-0.17592722
9	0xbda41500	-0.08011818
10	0xbe256afc	-0.16154093
11	0xbe19a3d8	-0.15003908
12	0x3caf0f90	0.021369725
13	0xbe293f2e	-0.16528007
14	0xbe216a58	-0.15763223
15	0xbe3ff5e4	-0.18746144
16	0xbe0fe42b	-0.14051883
17	0xbdf01499	-0.11722679
18	0x3dd75fda	0.10516329
19	0xbe2764b3	-0.16347007
20	0x3e0a48d1	0.1350434
21	0xbd845e4c	-0.06463298
22	0xbc975940	-0.018475175
23	0x3e3d4035	0.18481524
24	0xbe1a42b0	-0.15064502
25	0xbd987926	-0.07444982
26	0x3d1f4bfc	0.038890824

fc1.weight f4 [2, 9]
0	0x3e9a1369	0.30092934
1	0x3e882143	0.26587877
2	0xbe861ae7	-0.261924
3	0xbe685bf8	-0.22691333
4	0x3e85fd9d	0.26170054
5	0xbe045fa6	-0.12927112
6	0x3e542792	0.2071822
7	0xbe413280	-0.1886692
8	0x3d9173bc	0.07102153
9	0x3e3e3082	0.18573192
10	0xbe9a5037	-0.30139324
11	0xbe2834d8	-0.16426408
12	0x3d901e10	0.07036984
13	0xbe9fc8ef	-0.31207988
14	0xbdd38b86	-0.10329346
15	0x3dbf503c	0.09341475
16	0xbdef6ff0	-0.11691272
17	0xbe91c77f	-0.28472516

fc1.bias f4 [2]
0	0x3d58b258	0.052904457
1	0x3e4e197a	0.20126906
